…
2022-04-06 18:54:53 - music-generation - INFO - Vocab generated
2022-04-06 18:54:54 - music-generation - INFO - Input and Output processed
2022-04-06 18:54:55 - music-generation - INFO - Model: "sequential"
2022-04-06 18:54:55 - music-generation - INFO - _________________________________________________________________
2022-04-06 18:54:55 - music-generation - INFO -  Layer (type)                Output Shape              Param #
2022-04-06 18:54:55 - music-generation - INFO - =================================================================
2022-04-06 18:54:55 - music-generation - INFO -  reshape (Reshape)           (None, 4, 100)            0
2022-04-06 18:54:55 - music-generation - INFO -
2022-04-06 18:54:55 - music-generation - INFO -  lstm (LSTM)                 (None, 4, 64)             42240
2022-04-06 18:54:55 - music-generation - INFO -
2022-04-06 18:54:55 - music-generation - INFO -  dropout (Dropout)           (None, 4, 64)             0
2022-04-06 18:54:55 - music-generation - INFO -
2022-04-06 18:54:55 - music-generation - INFO -  lstm_1 (LSTM)               (None, 4, 64)             33024
2022-04-06 18:54:55 - music-generation - INFO -
2022-04-06 18:54:55 - music-generation - INFO -  flatten (Flatten)           (None, 256)               0
2022-04-06 18:54:55 - music-generation - INFO -
2022-04-06 18:54:55 - music-generation - INFO -  dense (Dense)               (None, 256)               65792
2022-04-06 18:54:55 - music-generation - INFO -
2022-04-06 18:54:55 - music-generation - INFO -  dropout_1 (Dropout)         (None, 256)               0
2022-04-06 18:54:55 - music-generation - INFO -
2022-04-06 18:54:55 - music-generation - INFO -  dense_1 (Dense)             (None, 272)               69904
2022-04-06 18:54:55 - music-generation - INFO -
2022-04-06 18:54:55 - music-generation - INFO -  reshape_1 (Reshape)         (None, 4, 68)             0
2022-04-06 18:54:55 - music-generation - INFO -
2022-04-06 18:54:55 - music-generation - INFO -  activation (Activation)     (None, 4, 68)             0
2022-04-06 18:54:55 - music-generation - INFO -
2022-04-06 18:54:55 - music-generation - INFO - =================================================================
2022-04-06 18:54:55 - music-generation - INFO - Total params: 210,960
2022-04-06 18:54:55 - music-generation - INFO - Trainable params: 210,960
2022-04-06 18:54:55 - music-generation - INFO - Non-trainable params: 0
2022-04-06 18:54:55 - music-generation - INFO - _________________________________________________________________
…
